…
    {
     "data": {
      "application/vnd.jupyter.widget-view+json": {
       "model_id": "fdeead00d9ff46a6ba9d069a7afa9459",
       "version_major": 2,
       "version_minor": 0
      },
      "text/plain": [
       "model.safetensors:   0%|          | 0.00/344M [00:00<?, ?B/s]"
      ]
     },
     "metadata": {},
     "output_type": "display_data"
    },
    {
     "data": {
      "text/plain": [
       "ViTForImageClassification(\n",
       "  (vit): ViTModel(\n",
       "    (embeddings): ViTEmbeddings(\n",
       "      (patch_embeddings): ViTPatchEmbeddings(\n",
       "        (projection): Conv2d(3, 768, kernel_size=(16, 16), stride=(16, 16))\n",
       "      )\n",
       "      (dropout): Dropout(p=0.0, inplace=False)\n",
       "    )\n",
       "    (encoder): ViTEncoder(\n",
       "      (layer): ModuleList(\n",
       "        (0-11): 12 x ViTLayer(\n",
       "          (attention): ViTAttention(\n",
       "            (attention): ViTSelfAttention(\n",
       "              (query): Linear(in_features=768, out_features=768, bias=True)\n",
       "              (key): Linear(in_features=768, out_features=768, bias=True)\n",
       "              (value): Linear(in_features=768, out_features=768, bias=True)\n",
       "            )\n",
       "            (output): ViTSelfOutput(\n",
       "              (dense): Linear(in_features=768, out_features=768, bias=True)\n",
       "              (dropout): Dropout(p=0.0, inplace=False)\n",
       "            )\n",
       "          )\n",
       "          (intermediate): ViTIntermediate(\n",
       "            (dense): Linear(in_features=768, out_features=3072, bias=True)\n",
       "            (intermediate_act_fn): GELUActivation()\n",
       "          )\n",
       "          (output): ViTOutput(\n",
       "            (dense): Linear(in_features=3072, out_features=768, bias=True)\n",
       "            (dropout): Dropout(p=0.0, inplace=False)\n",
       "          )\n",
       "          (layernorm_before): LayerNorm((768,), eps=1e-12, elementwise_affine=True)\n",
       "          (layernorm_after): LayerNorm((768,), eps=1e-12, elementwise_affine=True)\n",
       "        )\n",
       "      )\n",
       "    )\n",
       "    (layernorm): LayerNorm((768,), eps=1e-12, elementwise_affine=True)\n",
       "  )\n",
       "  (classifier): Linear(in_features=768, out_features=101, bias=True)\n",
       ")"
      ]
     },
     "execution_count": 6,
     "metadata": {},
     "output_type": "execute_result"
    }
   ],
   "source": [
    "# Load a pre-trained ViT model for food classification\n",
    "extractor = AutoFeatureExtractor.from_pretrained(\"nateraw/vit-base-food101\")\n",
    "vit_model = AutoModelForImageClassification.from_pretrained(\"nateraw/vit-base-food101\")\n",
…
